models/lstm_time_series.pth (torch, 170476 bytes, 7 tensors)

weight_ih_l0 f4 [400, 1]
0	0xbc4c2f0f	-0.0124623915
1	0xbe0216d7	-0.12704025
2	0xbe06335d	-0.13105531
3	0xbda50e5f	-0.08059382
4	0xbd471f66	-0.04861393
5	0x3d8c4349	0.06848771
6	0x3d51fe7a	0.05126808
7	0x3c45af04	0.012065653
8	0x3d525705	0.05135252
9	0xbddfc6fb	-0.109266244
10	0xbd70d252	-0.058794327
11	0xbd42b6e8	-0.047537714
12	0xbdf1d496	-0.11808126
13	0xbe1a2c1b	-0.15055887
14	0xbd62f176	-0.055406056
15	0x3d077f00	0.0330801
16	0x3d23c35d	0.039981235
17	0xbcaf4489	-0.021394985
18	0xbca78200	-0.020447731
19	0xbd9e0a99	-0.07716865
20	0xbe07276c	-0.13198632
21	0x3d2b3753	0.04180081
22	0xbd96aecc	-0.073575586
23	0xbba9edd5	-0.0051858225
24	0xbda9db16	-0.082937405
25	0xbd93fa93	-0.072255276
26	0xbdc469f3	-0.09590521
27	0xbc786b67	-0.015162325
28	0xbe29406a	-0.16528478
29	0xbd9b505b	-0.07583686
30	0xbd132aaa	-0.03592936
31	0xbbcc4f91	-0.006235071
32	0x3c74951f	0.014928131
33	0xbd7f143c	-0.062275156
34	0xbdc29a6b	-0.09502109
35	0xbc9af420	-0.018915236
36	0x3d011b93	0.031520437
37	0xbb9265bf	-0.0044676955
38	0x3d965c26	0.07341795
39	0xbc4dffc9	-0.012573191
40	0x3d460714	0.048346594
41	0x3dfe08bb	0.12404009
42	0x3d04a7a2	0.03238643
43	0x3c73b3d9	0.014874422
44	0xbd2714af	-0.04079121
45	0x3d790eb3	0.060805034
46	0x3d832713	0.06403937
47	0xbc320b7d	-0.010866997
48	0x3ce923fa	0.028459538
49	0xbd998d41	-0.07497645
50	0xbdce43a7	-0.100714974
51	0x3d420602	0.04736901
52	0xbcaf6567	-0.021410657
53	0xbcdb129f	-0.026742278
54	0xbc33e7bf	-0.010980546
55	0x3e00ab20	0.12565279
56	0xbda2c71c	-0.07948133
57	0xbde0da14	-0.10979095
58	0x3cd5f3b6	0.026117187
59	0x3c28f67c	0.010312673
60	0xbcc5fc10	-0.024168044
61	0xbd942bb9	-0.07234902
62	0x3d13b088	0.036057025
63	0xbb2e50fd	-0.0026598566
64	0x3dc3db8c	0.095633596
65	0xbde6795a	-0.11253615
66	0x3caba600	0.020953178
67	0xbd693c34	-0.05694218
68	0xbdd20e2a	-0.10256608
69	0xbbda96aa	-0.0066707926
70	0x3da42d46	0.08016448
71	0xbd842415	-0.064521946
72	0xbd9e51dc	-0.07730457
73	0x3cb54b15	0.022130528
74	0xbdcce65d	-0.10004876
75	0x3c1d51ac	0.009601992
76	0xbb0f2bcc	-0.0021846173
77	0xbdfa16da	-0.1221139
78	0x3d538f76	0.051650487
79	0xbd0f707e	-0.03501939
80	0xbd2e93bf	-0.04262137
81	0xbcfa7d0e	-0.030577209
82	0xbda6f6d1	-0.08152545
83	0x3c07ce2d	0.008288902
84	0xbd265168	-0.04060498
85	0x3c135f27	0.008994854
86	0xbdf4d08a	-0.11953838
87	0xbe155791	-0.14584185
88	0xbc69c123	-0.014267239
89	0x3c058243	0.008148733
90	0x3d0222e0	0.03177154
91	0xbd18aba1	-0.037273053
92	0xbd90bf85	-0.070677795
93	0x3d025c21	0.031826142
94	0x3d47360b	0.048635524
95	0x3c6afbca	0.014342258
96	0xbcbd6f15	-0.023124257
97	0x3d137e43	0.036009084
98	0x3d30c29f	0.043154355
99	0xbd8fb082	-0.07016088
100	0x3da464af	0.08027016
101	0xbd53094b	-0.051522534
102	0xbdac8cac	-0.084252685
103	0xbd116f41	-0.03550649
104	0xbd6522b4	-0.0559413
105	0x3d8ee6ce	0.06977616
106	0xbdcfe4d6	-0.10151069
107	0x3c548c75	0.012972941
108	0x3ce6fe77	0.02819751
109	0xbcd190ac	-0.02558168
110	0x3cc51de9	0.024062114
111	0x3c6e9e6e	0.01456414
112	0xbcd967d2	-0.026538763
113	0xbd24d0d1	-0.040238205
114	0xbc9fa1bb	-0.019486299
115	0x3d9b5f96	0.07586591
116	0xbd3f6f5b	-0.046737056
117	0x3a82f346	0.0009990714
118	0xbe01061b	-0.12599985
119	0xbdcf4969	-0.10121424
120	0xbdf50903	-0.119646095
121	0xbd2b3f0c	-0.041808173
122	0x3d733818	0.059379667
123	0x3da48c8f	0.08034622
124	0xbdc222d3	-0.094792984
125	0x3d3bdf6c	0.04586737
126	0xbcb1430d	-0.021638418
127	0xbd591280	-0.05299616
128	0xbd8049e9	-0.06264097
129	0xbdf7aba5	-0.120932855
130	0x3e04104f	0.12896846
131	0x3cbaaec4	0.022788413
132	0x3da1db75	0.07903186
133	0xbb85922f	-0.0040762643
134	0x3d52d16e	0.05146926
135	0xbd889e52	-0.06670822
136	0x3d14a1fb	0.03628729
137	0xbd2e90ea	-0.04261867
138	0xbc0485c4	-0.008088533
139	0xbe1133fe	-0.1417999
140	0x3dac221d	0.08404944
141	0x3df2351a	0.118265346
142	0x3d734e5f	0.059400912
143	0x3d042dc0	0.032270193
144	0x3daefbd2	0.08544125
145	0x3d7cb45b	0.061695438
146	0xbd730d3f	-0.059338804
147	0x3d57ffb3	0.05273409
148	0xbcf271c1	-0.029595258
149	0xbc77abe9	-0.01511667
150	0x3d086ecc	0.03330879
151	0xbd49d1ae	-0.04927223
152	0x3d198448	0.03747967
153	0xbdd35376	-0.10318653
154	0x3cf7cd07	0.030249132
155	0x3d43180f	0.047630366
156	0x3d3d5add	0.046229232
157	0x3b859451	0.0040765186
158	0x3d754d97	0.05988845
159	0x3c8567e4	0.01628489
160	0xbc9f44e6	-0.019442033
161	0xbd03e4ad	-0.032200504
162	0xbcf583a5	-0.02997
163	0x3c35396a	0.011061052
164	0xbd519b50	-0.05117351
165	0xbb03af16	-0.0020093373
166	0xbd4e8e07	-0.050428417
167	0xbc90952f	-0.017649261
168	0xbdeb4a51	-0.11488784
169	0xbd371708	-0.0446997
170	0xbd91711d	-0.07101653
171	0x3d6a4817	0.057197656
172	0xbc428b67	-0.011874056
173	0xbe234f6e	-0.15948269
174	0xbe004c61	-0.12529136
175	0x3db4f0d6	0.08834998
176	0x3cf4963b	0.029856792
177	0xbd6f0cc4	-0.058361784
178	0x3d339e90	0.04385239
179	0xbc961540	-0.01832068
180	0x3c6a8e79	0.014316195
181	0x3c270ec7	0.010196394
182	0xbccec0d7	-0.025238438
183	0xbe00e8f9	-0.12588872
184	0x3d623c9e	0.05523359
185	0xbd2be18b	-0.04196314
186	0xbde165c8	-0.11005741
187	0x3d0b1bc8	0.03396204
188	0xbb7dd744	-0.0038733045
189	0x3c2805c8	0.010255285
190	0x3d415bf9	0.047206853
191	0x3d3a0ca6	0.04542222
192	0xbdb78acf	-0.089620225
193	0x3dd892ed	0.10574899
194	0xbd4de193	-0.050263952
195	0xbd145932	-0.036217876
196	0x3cc57de7	0.024107886
197	0x3cc02f59	0.023460077
198	0xbe0124d3	-0.12611704
199	0x3d9c5c57	0.076348
200	0xbe0f9f69	-0.14025654
201	0xbbcb6a41	-0.006207735
202	0xbe125245	-0.14289196
203	0xbdc287bf	-0.09498548
204	0x3e10a742	0.14126304
205	0x3dde4f1b	0.10854932
206	0xbe0ab1bc	-0.13544363
207	0xbd96c32d	-0.073614456
208	0xbd3fa9a4	-0.04679264
209	0x3d08f1ad	0.033433605
210	0x3d89daa7	0.06731158
211	0x3dbeb18c	0.09311208
212	0xbaa0043d	-0.0012208294
213	0xbdc9aac3	-0.09847023
214	0xbe0a5d0a	-0.13512054
215	0x3e1f3262	0.15546563
216	0xbe06293d	-0.13101669
217	0xbd2bb3eb	-0.04191963
218	0x3c25688c	0.010095727
219	0xbe0c34d9	-0.13692035
220	0xbd6ec570	-0.05829376
221	0x3dcf2d1b	0.10116025
222	0xbd6e3356	-0.058154427
223	0x3cf9b438	0.030481443
224	0x3e2b3e92	0.16723087
225	0xbd8874f9	-0.06662936
226	0xbdbfa692	-0.09357943
227	0x3e27e636	0.16396412
228	0xbd893c96	-0.06701009
229	0xbc8f013c	-0.017456643
230	0x3de7db3f	0.11321115
231	0x3e19d821	0.15023853
232	0xbe35c873	-0.17752247
233	0x3d7c47d4	0.06159194
234	0xbdecdab7	-0.11565154
235	0x3d581c97	0.05276164
236	0xbe317b05	-0.17332084
237	0x3db25f82	0.08709623
238	0xbdeda1ae	-0.116031036
239	0xbdf13002	-0.11776735
240	0x3d420ea7	0.047377255
241	0x3d05d658	0.032675117
242	0x3d5b280f	0.053505
243	0xbde748f7	-0.11293214
244	0xbda4db71	-0.080496676
245	0x3ca0d3a4	0.019632168
246	0xbe2e216e	-0.1700494
247	0xbd2608ad	-0.040535618
248	0x3e259850	0.16171384
249	0xbc4ad4a4	-0.012379799
250	0x3e194c6a	0.14970556
251	0xbcdb08cd	-0.026737595
252	0x3dd3f74a	0.10349901
253	0x3dc7dd8b	0.09759053
254	0xbdd94c66	-0.10610275
255	0xbd4676c7	-0.04845312

weight_hh_l0 f4 [400, 100]
0	0xbdb8ea14	-0.09029022
1	0xb939f92a	-0.00017735796
2	0x3d9ee51b	0.07758542
3	0x3d05ce5e	0.03266751
4	0xbda8f83e	-0.082504734
5	0xbd872a91	-0.06599916
6	0x3dac5b92	0.08415903
7	0xbca50851	-0.020145567
8	0xba61b5a0	-0.0008610133
9	0xbd9b744d	-0.07590542
10	0x3d03c56b	0.032170694
11	0x3aceb2c8	0.0015769834
12	0x3d87d339	0.066320844
13	0x3d8ea3cb	0.06964835
14	0xbd58bc69	-0.052914057
15	0x3d25ca64	0.040476218
16	0x3d9fc517	0.07801264
17	0x3d7c0d1c	0.06153594
18	0xbd63c907	-0.055611636
19	0x3d0603fe	0.03271865
20	0xbcc8faf2	-0.024533723
21	0xbd319f43	-0.043364774
22	0x3ded0ed3	0.11575093
23	0xbcb249da	-0.02176373
24	0xbdec5052	-0.115387574
25	0x3dc6acd5	0.09700934
26	0x3da0b49b	0.07846948
27	0x3d6582c8	0.056032926
28	0xbd4b9f77	-0.049712624
29	0xbc80fa4d	-0.015744353
30	0x3da90a81	0.082539566
31	0x3dd6c732	0.10487212
32	0xbd0a3ef2	-0.033751436
33	0xbdd4a283	-0.10382559
34	0xbbdae8da	-0.00668059
35	0xbc63077c	-0.013856765
36	0xbdf8c245	-0.12146429
37	0x3d636ad2	0.055521794
38	0xbd6d4abe	-0.057932608
39	0x3c7a3a41	0.015272678
40	0x3dc5f6d9	0.09666223
41	0x3aaa5742	0.0012995976
42	0x3d98ab02	0.07454492
43	0x3ddadf4b	0.10687121
44	0xbbe7909d	-0.0070668
45	0xbcf4b1c1	-0.029869916
46	0x3b4e379a	0.0031466247
47	0xbbe087a1	-0.0068521057
48	0xbe0a0766	-0.13479385
49	0x3dd00053	0.10156312
50	0xbdaf5e2f	-0.08562886
51	0x3d42a39f	0.047519322
52	0x3d93246a	0.0718468
53	0xbb1b6e66	-0.0023716926
54	0x3ca9ffc0	0.020751834
55	0x3c680337	0.014160923
56	0xbc218847	-0.009859151
57	0x3bd49bcc	0.006488299
58	0xbdca244d	-0.09870205
59	0x3bd4a862	0.0064897994
60	0xbd01560c	-0.0315762
61	0x3df002a6	0.11719255
62	0x3d502522	0.050816663
63	0xbc95bd33	-0.018278694
64	0xbd54fb89	-0.051997695
65	0x3b75b994	0.0037494646
66	0xbdc9cc29	-0.098533936
67	0xbd5bca46	-0.0536597
68	0x3c02f7dd	0.0079936655
69	0x3979fc0f	0.0002384039
70	0x3c8fda7c	0.017560236
71	0xbdb8259c	-0.089915484
72	0xbd80aeb4	-0.06283322
73	0xbd6ef076	-0.05833479
74	0x3e0427dc	0.1290583
75	0xbdcf5a2b	-0.1012462
76	0x3dc34a61	0.09535671
77	0x3d7d4c5d	0.061840404
78	0x3d9ad0d9	0.07559366
79	0xbd64372a	-0.05571667
80	0x3d72ee2d	0.059309173
81	0xbd743779	-0.059623215
82	0xbce5fe2a	-0.028075296
83	0x3d1d0d14	0.03834255
84	0x3d06247f	0.03274965
85	0xbbfee9d1	-0.007779338
86	0x3d39c206	0.04535105
87	0x3d6a5a88	0.057215244
88	0x3bcdeecb	0.00628457
89	0x3d82dd40	0.06389856
90	0x3e0bb3f4	0.13642865
91	0xbd9f68df	-0.077836744
92	0xbdaee4cc	-0.08539733
93	0xbd071863	-0.03298224
94	0xbd485625	-0.04891028
95	0x3b974368	0.0046161897
96	0xbb10f75b	-0.0022120092
97	0x3d06e3e1	0.032932166
98	0x3c5c982a	0.013464013
99	0xbdcdb17e	-0.100436196
100	0xbc99a010	-0.018753082
101	0xbc72188b	-0.014776359
102	0x3d8d9020	0.06912255
103	0x3dfc79bd	0.12327907
104	0x3cd491d7	0.025948448
105	0xbd988aad	-0.07448325
106	0x3db4781e	0.08811973
107	0x3ceafa59	0.028683828
108	0xbcb9c866	-0.022678565
109	0xbe2172c9	-0.15766443
110	0xbda24bde	-0.07924627
111	0xbc0f9348	-0.008763142
112	0xbd9881a2	-0.074466005
113	0x3decb32d	0.115576126
114	0x3d06acdb	0.03287969
115	0x3d2add2a	0.041714825
116	0x3d766160	0.060151458
117	0xbd973cbd	-0.07384632
118	0x3d49dc69	0.049282465
119	0x3dda0c7c	0.106469125
120	0x3dc9c66d	0.098523
121	0x3d8079cb	0.0627323
122	0x3d9e7495	0.0773708
123	0x3d24a2a2	0.04019416
124	0x3d386c17	0.045024958
125	0xba820b1f	-0.0009921527
126	0x3d697378	0.056994885
127	0x3d365fb0	0.04452485
128	0x3c453906	0.012037521
129	0xbbbba6da	-0.0057266774
130	0xbd4c14ef	-0.04982465
131	0xbc372359	-0.011177861
132	0xbd99275b	-0.074782096
133	0xbcd4852d	-0.02594241
134	0x3d405a40	0.04696107
135	0xbc90c397	-0.01767139
136	0x3c924c7a	0.017858732
137	0x3d818df5	0.06325904
138	0xbc462919	-0.012094759
139	0xbd8f04fe	-0.06983374
140	0xbb7e6cd6	-0.0038822195
141	0xbd9974b4	-0.074929625
142	0x3d3eb8b3	0.04656286
143	0xbc8f517c	-0.01749491
144	0xbdc38a79	-0.09547896
145	0x3d8606c1	0.06544257
146	0x3b72d8c4	0.0037055472
147	0x3d3a1207	0.04542735
148	0x3cd00520	0.025393069
149	0x3d924b1c	0.07143232
150	0x3da85535	0.08219377
151	0x3d33eaa5	0.043924946
152	0x3a9bdc47	0.0011891209
153	0xbd9013b2	-0.070350066
154	0xbc945d08	-0.018110767
155	0x3a9d4cec	0.0012001074
156	0x3dbc732a	0.09201653
157	0xbd9bd898	-0.07609671
158	0x3d027f92	0.03185994
159	0xbd99b1fc	-0.07504651
160	0x3d2a94d0	0.041645825
161	0x3dbdbb91	0.09264291
162	0xbdd9b5fe	-0.106304154
163	0x3d70b822	0.058769353
164	0x3c1e348a	0.009656081
165	0xbd3e5c8d	-0.046474982
166	0xbd0a1c66	-0.03371849
167	0xbbc469da	-0.005994064
168	0xbd802302	-0.06256677
169	0x3decd529	0.115640946
170	0x3aacfbaf	0.0013197566
171	0x3d87179a	0.065962985
172	0xbc1d1e6f	-0.009589775
173	0x3cdda5ed	0.027056659
174	0x3c45bf3d	0.012069521
175	0x3d412ce4	0.04716195
176	0xbd97a4dd	-0.07404492
177	0x3d391f40	0.045195818
178	0xbca425f8	-0.020037636
179	0x3de17d97	0.110102825
180	0xbdec8d9e	-0.11550449
181	0xbb8a1829	-0.004214306
182	0xbdcccb8e	-0.099997625
183	0x3cd6610f	0.026169328
184	0x3c9c24de	0.019060548
185	0xbdc7a6a8	-0.09748584
186	0x3c3b3258	0.011425577
187	0x3ddb9892	0.1072246
188	0x3d6edbd2	0.058315106
189	0x3b3bb2f2	0.0028640595
190	0x3ca1b63c	0.019740216
191	0x3c35fa32	0.0111070145
192	0xbe001d0e	-0.12511083
193	0x3d830be5	0.06398753
194	0xbdcf4daa	-0.10122235
195	0x3b6ccdd4	0.0036133425
196	0xbd53b450	-0.05168563
197	0xbda5e651	-0.0810057
198	0xbcd956c3	-0.026530629
199	0xbdc953bd	-0.09830425
200	0xbda15751	-0.078779824
201	0xbd9894a0	-0.07450223
202	0xbd23b469	-0.039966974
203	0xbd70ee20	-0.058820844
204	0xbd2f9cf1	-0.04287428
205	0xbd58514a	-0.0528119
206	0x3d0efa56	0.034906708
207	0x3d7c6cd2	0.061627217
208	0xbd957402	-0.07297517
209	0xbc6eae1f	-0.014567881
210	0x3d67e452	0.056614228
211	0xbd4d87d1	-0.050178353
212	0xbc12a627	-0.008950747
213	0x3dab0bd7	0.08351868
214	0xbd42b03a	-0.047531344
215	0x3b6f01a4	0.0036469484
216	0xbbee68ec	-0.0072756913
217	0xbdcc72ec	-0.09982857
218	0x3d040da9	0.03223959
219	0xbcc15244	-0.023598798
220	0x3dbf43e8	0.09339124
221	0xbd261a89	-0.04055265
222	0x3ae87de4	0.0017737714
223	0xbdde479c	-0.10853502
224	0x3d93b42e	0.07212101
225	0x39bcfaec	0.00036045106
226	0x3dbb129a	0.09134407
227	0xbca514c7	-0.020151509
228	0x3df06664	0.117382795
229	0xbd4146c9	-0.047186647
230	0xbd7b7582	-0.06139136
231	0x3db1dc9a	0.086846545
232	0xbdd28ea7	-0.10281115
233	0xbcca4645	-0.02469171
234	0x3c4a92c3	0.012364092
235	0xbc42e240	-0.0118947625
236	0xbdaa5b66	-0.08318214
237	0x3cda9f9c	0.026687436
238	0x3d3835e5	0.044973273
239	0x3c5fd709	0.013662108
240	0x3dc419db	0.09575244
241	0x3d92816c	0.071535915
242	0x3cdb4459	0.02676599
243	0x3cdc16b7	0.0268663
244	0x3db5e5e8	0.08881742
245	0xbbeb81b1	-0.0071870913
246	0xbd4abee5	-0.049498457
247	0xbdd62f6a	-0.10458262
248	0xbd24cf00	-0.040236473
249	0xbcd160b4	-0.025558807
250	0xbd00a72d	-0.03140943
251	0xbce0c433	-0.027437305
252	0x3a3c6729	0.0007187003
253	0x3d5803eb	0.05273811
254	0xbd1d24c7	-0.03836515
255	0xbdf63a80	-0.12022877

bias_ih_l0 f4 [400]
0	0x3e049f4d	0.12951393
1	0xbdab03ca	-0.08350332
2	0xbd6a74d0	-0.057240307
3	0x3c690847	0.014223165
4	0x3dd6a69a	0.104809955
5	0xbd546eb9	-0.051863406
6	0x3d90457b	0.07044502
7	0xbd88f8ea	-0.066881016
8	0xbbf7ec35	-0.007566
9	0xbccfb3c4	-0.025354274
10	0x3ca1c13f	0.019745467
11	0x3d8b70d0	0.06808627
12	0x3cff19cf	0.031140236
13	0xbd22901f	-0.039688226
14	0x3db487a0	0.08814931
15	0xbcb586f6	-0.022159081
16	0x3dccf4ec	0.10007653
17	0xbcfe230a	-0.031022567
18	0x3bbfe440	0.005856067
19	0x3d3d9d1e	0.046292417
20	0xba5840fd	-0.000824943
21	0xbd7775ea	-0.060415186
22	0xbd7b3922	-0.061333783
23	0xbdc41406	-0.09574132
24	0x3e2f535d	0.17121644
25	0x3db202c5	0.086919345
26	0xbd827dd4	-0.06371656
27	0x3bafe72d	0.0053681345
28	0xbbd965fd	-0.0066344724
29	0x3d7df784	0.062003627
30	0x3e00ee29	0.12590851
31	0x3d4e354c	0.050343797
32	0x3c9fca28	0.019505575
33	0x3b8d1c79	0.0043063727
34	0x3df5e88d	0.12007246
35	0x3d1166c1	0.035498384
36	0xbd5944b9	-0.053044055
37	0x3d225749	0.039634023
38	0x3b1d0fca	0.002396571
39	0x3d09ea11	0.03367049
40	0xbcd68d16	-0.026190322
41	0x3cc4945b	0.023996523
42	0xbcd3e802	-0.025867466
43	0x3dc88f3f	0.09792947
44	0x3a59f527	0.00083144236
45	0x3d8aebe4	0.06783274
46	0x3dab2412	0.08356489
47	0xbcb6dc2d	-0.022321785
48	0x3c60d074	0.013721574
49	0x3cf3991a	0.02973609
50	0x3d9e2c7d	0.07723329
51	0x3cdab00c	0.026695274
52	0xbd083651	-0.033254925
53	0x3d1ee04b	0.03878812
54	0x3deb7280	0.114964485
55	0xbb2190e5	-0.0024653014
56	0x3cb47410	0.022028
57	0x3d85c9c5	0.06532625
58	0x3d85262b	0.065014206
59	0x3db1b5ce	0.086772546
60	0xbd35d843	-0.044395696
61	0x3d5d7c32	0.05407352
62	0x3dd2ea7e	0.10298632
63	0x3ddd31ab	0.10800489
64	0x3d118574	0.03552766
65	0xbcaebf80	-0.021331549
66	0xbd9b46c5	-0.075818576
67	0x3d43ad83	0.047772896
68	0x3d1e6105	0.038666744
69	0x3d085bd3	0.033290695
70	0x3de0b261	0.10971523
71	0x3d242b6f	0.040080484
72	0x3b1968d5	0.0023408432
73	0x391d93d3	0.00015027756
74	0xbd71e826	-0.059059285
75	0x3c3e0681	0.01159823
76	0x3d2b04df	0.041752692
77	0xbd440a67	-0.047861483
78	0x3d87813a	0.06616445
79	0xbd123d74	-0.035703138
80	0xbdafb4d1	-0.0857941
81	0xbd8b03ad	-0.067878105
82	0xbd6b6a92	-0.05747468
83	0xbcb20f73	-0.021735882
84	0x3d41be1c	0.047300443
85	0x3d06e8dd	0.03293692
86	0x3d15cf7a	0.03657482
87	0x3d15114b	0.036393445
88	0x3dd58f62	0.10427739
89	0x3df3cb73	0.11904039
90	0x3dedb183	0.11606123
91	0x3daa0167	0.08301049
92	0xbdb0a9ec	-0.0862616
93	0xbd00be16	-0.03143128
94	0xbd424b6f	-0.04743522
95	0x3d9aa5df	0.07551169
96	0x3cb058e4	0.021526761
97	0x3dc775fd	0.09739301
98	0x3d91944c	0.071083635
99	0x3dba4f26	0.090971276
100	0x3da1c3c7	0.0789867
101	0xbaaba687	-0.0013095894
102	0x3d367d8b	0.04455332
103	0x3ddf381f	0.10899376
104	0x3bafc685	0.0053642415
105	0xbb6d21a0	-0.0036183372
106	0x3d52406d	0.051330972
107	0x3a0c26c4	0.00053463527
108	0x3d5df392	0.054187365
109	0x3debf4db	0.11521312
110	0xbdbc6581	-0.09199048
111	0xbd511822	-0.051048405
112	0xbd99e419	-0.07514209
113	0x3c1cb5ed	0.009564859
114	0x3dd29aa4	0.102834016
115	0x3dcfdfb4	0.1015009
116	0xbd86a291	-0.06573976
117	0xbda206c0	-0.07911444
118	0x3dacc85b	0.08436652
119	0x3d8bc87e	0.0682535
120	0x3d5b714b	0.05357484
121	0x3bb5e0c0	0.005550474
122	0xbdc19b41	-0.094534405
123	0xbd71631f	-0.05893242
124	0x3d18b887	0.037285354
125	0xbd420960	-0.047372222
126	0xbd062ea0	-0.03275931
127	0xbd97f6bf	-0.0742011
128	0x3d64f224	0.055894986
129	0x3dd26493	0.10273089
130	0xbd1f8008	-0.03894046
131	0x3db2d9cd	0.087329485
132	0xbd6d55bd	-0.057943095
133	0x3d426335	0.047457892
134	0x3d943f82	0.07238676
135	0xbca25842	-0.019817475
136	0xbd1e8174	-0.038697675
137	0xbd549aa6	-0.051905297
138	0x3d9fb522	0.0779822
139	0x3b949c39	0.0045352248
140	0xbd7c8bf2	-0.0616569
141	0x3d7127e9	0.058875952
142	0x3c5b5844	0.013387743
143	0x3d46203a	0.048370577
144	0x3d423f7b	0.04742382
145	0x3dcf5563	0.10123708
146	0x3d83c63e	0.06434296
147	0x3d8ded09	0.069299765
148	0x3d8abb19	0.06773967
149	0xbcfb5bf1	-0.03068349
150	0x3da79c78	0.08184141
151	0xbd4761a8	-0.048677117
152	0xbdc4b919	-0.09605617
153	0x3d341a27	0.043970253
154	0xbcd5e9f4	-0.026112534
155	0xbd2ec68a	-0.04266981
156	0xbc66d5fe	-0.014089106
157	0x3de37ff4	0.111083895
158	0xbaeebcb5	-0.0018214198
159	0x3d2b7ecb	0.041868966
160	0x3c991eca	0.01869144
161	0x3b007a1e	0.0019604038
162	0x3dc04e7b	0.09389969
163	0x3db4461a	0.08802433
164	0xbd0b17e7	-0.033958342
165	0xbd62d7b0	-0.055381477
166	0xbc3e18cc	-0.011602592
167	0xbdd4b4e4	-0.10386065
168	0xbc68ca88	-0.014208443
169	0xbd2979e7	-0.04137602
170	0xbd677111	-0.056504313
171	0x3da4657c	0.08027169
172	0xbcccae8a	-0.02498557
173	0xbbf2b7a2	-0.0074071446
174	0xbd3a3493	-0.045460295
175	0xbd85b445	-0.06528524
176	0x3d9ad63e	0.07560395
177	0xbd31d479	-0.04341552
178	0xbb81902a	-0.0039539533
179	0x3d856672	0.065136805
180	0x3c8e0012	0.017334018
181	0xbd47869c	-0.048712358
182	0x3d825a35	0.06364862
183	0xbd10c620	-0.035345197
184	0x3d9b54be	0.07584523
185	0xbd569199	-0.052384946
186	0xbd12ed86	-0.03587105
187	0x3d505a28	0.05086723
188	0x3db007d9	0.08595247
189	0x3d079d87	0.033109214
190	0x3c94ed5a	0.018179584
191	0xbd46eec3	-0.048567545
192	0xbd4c785e	-0.04991948
193	0x3c1d65e2	0.00960681
194	0x3d2b174f	0.041770276
195	0x3deae676	0.11469738
196	0xbd4efa04	-0.050531402
197	0x3d1535b2	0.03642816
198	0xbd10080a	-0.035163917
199	0x3d0e7410	0.034778655
200	0x3d88f850	0.06687987
201	0x3ba0e13e	0.0049096635
202	0xbc1edf34	-0.00969677
203	0xbd351d87	-0.044217613
204	0xbd91b5ea	-0.071147755
205	0xbd5f078a	-0.05445055
206	0xbc81b602	-0.015833858
207	0xbd04e12f	-0.032441314
208	0xbdb6bfb5	-0.08923284
209	0x3db2f19f	0.08737492
210	0xbdaf6195	-0.08563534
211	0xbd5acded	-0.053419042
212	0x3d0baf36	0.03410264
213	0xbb58fb57	-0.0033108795
214	0xbd930791	-0.071791776
215	0x3d52edbd	0.051496256
216	0xbce67ae3	-0.028134769
217	0xbdcb39c8	-0.0992313
218	0xbd810a22	-0.06300761
219	0x3d8f4e32	0.069973364
220	0x3d2ee01b	0.042694192
221	0x3d42991c	0.047509298
222	0x3d37eb72	0.044902273
223	0xbd9efa7a	-0.07762618
224	0x3d9aaa15	0.07551972
225	0xbd6118e7	-0.05495539
226	0xb95b604b	-0.0002092134
227	0x3c227ede	0.009917943
228	0x3c9bf617	0.019038243
229	0xbd25fcf7	-0.04052445
230	0x3c09ed58	0.008418404
231	0x3cfe386f	0.031032769
232	0xbdcc5ad7	-0.09978264
233	0x3d57e4a9	0.0527083
234	0xbd926665	-0.071484365
235	0x3d17d467	0.037067797
236	0xbdb456b9	-0.088056035
237	0xbda1eb33	-0.07906189
238	0x3cf3324a	0.029687066
239	0x3ce18908	0.027531162
240	0x3d9e07bc	0.07716319
241	0xbd8e2ff2	-0.069427386
242	0x3dc5f0eb	0.09665092
243	0xbb8c5cfd	-0.004283546
244	0x3cee09b2	0.029057357
245	0xbd51bfd6	-0.05120834
246	0xbbeade92	-0.0071676457
247	0xbd65e11a	-0.056122877
248	0xbd727509	-0.059193645
249	0xbccc0b84	-0.024907835
250	0xbdc6b503	-0.09702494
251	0x3d31a1b8	0.043367118
252	0xbc96e7c1	-0.018421056
253	0xbdb562a6	-0.08856706
254	0xbc363769	-0.011121609
255	0xbd6f934a	-0.058490075

bias_hh_l0 f4 [400]
0	0x3d327410	0.043567717
1	0x3dd79766	0.10526924
2	0xbd853e34	-0.06506005
3	0x3d8ee298	0.06976813
4	0x3d6b0f63	0.05738772
5	0x3d947119	0.07248134
6	0x3c2c2641	0.010507167
7	0xbd9d1093	-0.07669177
8	0x3cc529e7	0.024067832
9	0x3dcacfb5	0.09902898
10	0xbd3a7de3	-0.04553021
11	0xbd70aca5	-0.058758397
12	0x3da46283	0.08026602
13	0x3def2d03	0.11678507
14	0x3e0814ee	0.13289234
15	0x3b2ffa86	0.0026852204
16	0xbd993b36	-0.07481997
17	0x3c195248	0.009357996
18	0x3d8a3a2f	0.06749379
19	0x3db35b31	0.08757628
20	0xbd9cb2cc	-0.0765129
21	0x3d1a955e	0.037740104
22	0xbbf3c8d9	-0.0074397144
23	0x3db7c3a2	0.08972861
24	0xbc7cfffc	-0.015441891
25	0x3dc43471	0.09580315
26	0x3d05f429	0.032703552
27	0x3c1b21de	0.009468524
28	0xbd92dd42	-0.07171108
29	0x3cfe39ac	0.03103336
30	0xbcc560d6	-0.024094027
31	0xbcd10098	-0.025512978
32	0x3daed161	0.085360296
33	0xbd45f6d4	-0.048331097
34	0x3cfb86ba	0.030703891
35	0x3d5f5403	0.05452348
36	0xbbe86f44	-0.007093342
37	0xbd2bc72f	-0.041938003
38	0x3d5edd99	0.05441055
39	0x3d4d4368	0.05011311
40	0xbcd0c9aa	-0.025486786
41	0x3d799eb7	0.060942378
42	0x3dc0de99	0.09417457
43	0x3daabba9	0.083365746
44	0x3d1467dc	0.03623186
45	0xbc9c605d	-0.019088918
46	0xba92517b	-0.0011163199
47	0x3d64df12	0.0558768
48	0xbd11de80	-0.035612583
49	0x3dbbdee9	0.09173376
50	0x3d7e54a8	0.062092453
51	0xbbc91768	-0.0061368234
52	0xbca1114b	-0.019661566
53	0x3ae6464a	0.0017568555
54	0x3bc3c744	0.005974682
55	0x3d4ab90c	0.04949288
56	0xbcea2ca0	-0.028585732
57	0x3dcc462d	0.099743225
58	0x3d3c59dc	0.045984134
59	0x3ab7ae9a	0.0014013827
60	0xbd945440	-0.07242632
61	0x3c5c1ffb	0.013435359
62	0x3cfdbc62	0.030973617
63	0x3d03055a	0.031987526
64	0x3d93bdeb	0.07213958
65	0x3db278b6	0.0871443
66	0x3d219209	0.03944591
67	0x3dbcc4b9	0.09217209
68	0xbcd57f67	-0.026061727
69	0xbda72d7d	-0.08162973
70	0x3da859b3	0.08220234
71	0x3ce37986	0.027767908
72	0x3d4a9536	0.049458705
73	0xbd85292a	-0.06501992
74	0x3d1dff26	0.038573407
75	0x3ce0a0da	0.02742045
76	0xbd7b22b1	-0.06131238
77	0xbd8f1654	-0.069866806
78	0xbdaa550e	-0.08317004
79	0xbd810c6a	-0.06301196
80	0x3dbdfbc5	0.09276537
81	0x3d968d41	0.07351161
82	0xbcabe9b8	-0.02098547
83	0xbc976f8f	-0.018485812
84	0xbd847d3e	-0.064692006
85	0x3ca3983d	0.019970054
86	0xbd6a2924	-0.05716814
87	0xbdb3d2bf	-0.08780431
88	0xbc915f5a	-0.017745662
89	0x3d82f320	0.06394029
90	0xbcc700cb	-0.02429237
91	0xbd8c75d9	-0.06858415
92	0xbcbce9d0	-0.02306071
93	0x3e0716da	0.13192311
94	0x3dc11ac2	0.09428932
95	0xbc51b525	-0.012799536
96	0x3dc28e55	0.09499804
97	0xbb3113c1	-0.002701983
98	0x3dd7d44a	0.10538538
99	0xbcaf4953	-0.021397268
100	0x3c94e6b1	0.018176408
101	0x3ded3098	0.11581534
102	0x3dcd93e1	0.10037971
103	0x3cd854b9	0.026407586
104	0xbc82998e	-0.015942361
105	0x3af6ddbb	0.0018834391
106	0x3dc49f87	0.0960074
107	0xbcbd2de1	-0.023093166
108	0x3dfdd086	0.12393288
109	0x3d5c2838	0.053749293
110	0xbc7ed6df	-0.015554159
111	0x3d2b73a0	0.041858315
112	0xbc07b974	-0.008283962
113	0x3d9f9cde	0.07793592
114	0x3c9d444a	0.019197602
115	0x3dafac0f	0.085777394
116	0xbd380190	-0.044923365
117	0xbcb331e9	-0.021874385
118	0x3d334958	0.043771118
119	0xbd1948de	-0.037423007
120	0x3dbbc5ab	0.091685615
121	0x3b9ac993	0.0047237366
122	0xbca74c82	-0.020422224
123	0x3c50e2fe	0.012749432
124	0x3d09b849	0.033623014
125	0xbcff4d9e	-0.03116494
126	0xbbccdb05	-0.006251695
127	0x3dcc46f7	0.09974473
128	0x3d061184	0.032731548
129	0x3db4938d	0.088172056
130	0x3d9199a4	0.07109383
131	0xbd82cb9e	-0.06386493
132	0x3d04a273	0.032381486
133	0x3d7efe2e	0.062254123
134	0xbd5d5c4d	-0.054043103
135	0x3ddb8bb3	0.10720005
136	0xbc7891d9	-0.015171492
137	0x3b34e89d	0.0027604469
138	0xbccaa8b1	-0.024738641
139	0xbc5e24cd	-0.013558579
140	0x3da04ae3	0.078267835
141	0x3cf2daa2	0.029645268
142	0xbc04189b	-0.008062507
143	0xbcc3b525	-0.023890087
144	0xbd3e78db	-0.046501976
145	0x3cb6b669	0.022303777
146	0xbcf6d9ea	-0.030133206
147	0x3bca1fc0	0.0061683357
148	0x3d902dbf	0.070399754
149	0x3ded7abf	0.115956776
150	0x3a4ed588	0.0007890095
151	0x3da2c904	0.07948497
152	0xbd544d49	-0.051831517
153	0xbb32d8d4	-0.0027289884
154	0xbd246485	-0.040134925
155	0x3d7a02ff	0.061038014
156	0xbd485cef	-0.048916753
157	0xbd687c44	-0.056759134
158	0xbd558b0a	-0.05213455
159	0x3d7cb029	0.061691437
160	0x3d3da922	0.046303876
161	0xbda8a904	-0.08235362
162	0xbadc5ff3	-0.0016813263
163	0xbdb7552b	-0.089517914
164	0x3dfe31f0	0.124118686
165	0xba429388	-0.00074224966
166	0x3ca61933	0.020275688
167	0x3daf1c51	0.08550323
168	0x3dc6c8d3	0.09706273
169	0xbdc0e039	-0.09417767
170	0x3c1d8f48	0.00961668
171	0xbb6b2367	-0.0035879256
172	0xbd35255b	-0.044225078
173	0xbc3c1eae	-0.011481924
174	0xbcc64363	-0.024202054
175	0x3dc88c67	0.097924046
176	0x3d9017bc	0.07035777
177	0xbcc4204e	-0.023941185
178	0xbd5ead20	-0.054364324
179	0x3b1310fc	0.0022440543
180	0xbba32118	-0.0049783103
181	0xbd15baa2	-0.03655494
182	0x3dd8df81	0.10589505
183	0xbd712bb0	-0.058879554
184	0x3d56d9f5	0.052453954
185	0xbd53ac97	-0.051678266
186	0xbd6a9f60	-0.057280898
187	0x3d8f6289	0.07001216
188	0xbd243e58	-0.040098518
189	0x3d452e03	0.048139583
190	0xbd1ce8b9	-0.03830788
191	0x3c48a036	0.0122452285
192	0x3b212078	0.0024586003
193	0x3d12d544	0.035847917
194	0x3d3fae3f	0.046797033
195	0x3d0341b6	0.03204509
196	0x3d007d2d	0.031369377
197	0xbc2d6e76	-0.010585418
198	0xbdc7beaf	-0.09753167
199	0xbd7cb473	-0.061695527
200	0xbd5b5736	-0.053549968
201	0x3d4c545c	0.04988514
202	0x3c804b51	0.015660914
203	0x3b4a7507	0.0030892508
204	0xbd6bd746	-0.057578348
205	0x3d8cdc95	0.0687801
206	0x3d32595f	0.043542262
207	0x3c81f2f6	0.015862923
208	0xbd1602a8	-0.036623627
209	0x3cde573a	0.027141202
210	0xbd594861	-0.05304754
211	0xbd9d3729	-0.076765366
212	0x3da304fa	0.079599336
213	0x3db6cc3d	0.08925674
214	0x3d93ad4d	0.07210789
215	0xbce1706f	-0.027519433
216	0x3d9a94a5	0.07547883
217	0xbdab9d24	-0.083795816
218	0x3dade64b	0.084911905
219	0xbc8a27ad	-0.016864622
220	0xbcd3cd75	-0.025854805
221	0x3b2800b7	0.0025635192
222	0x3c78742e	0.015164418
223	0x3a0310c7	0.00049997534
224	0xbdb6f8af	-0.089341514
225	0x3c989d50	0.0186297
226	0xbcc96a28	-0.024586752
227	0x3d9a4946	0.07533507
228	0x3d8e2a51	0.06941665
229	0xbcb5cc89	-0.022192257
230	0x3d3d181b	0.046165567
231	0x3d4d3c23	0.05010618
232	0x3b807b66	0.0039209602
233	0xbdd0611b	-0.101747714
234	0x3dbc8ca9	0.09206516
235	0xbd3e18b3	-0.046410274
236	0xbd76036e	-0.060061865
237	0x3d9ba17c	0.0759916
238	0x3d47e616	0.04880341
239	0x3d89af32	0.06722869
240	0x3d86a254	0.065739304
241	0xbd901772	-0.07035722
242	0x3cc166e0	0.023608625
243	0x3dbbce75	0.09170238
244	0x3d9f8346	0.0778871
245	0x3d8c85ce	0.06861459
246	0x3cad3190	0.021141797
247	0xbdb73624	-0.089458734
248	0xbdb17894	-0.086655766
249	0x3d29d296	0.041460596
250	0xbc825fa6	-0.01591475
251	0x3dbbddea	0.09173186
252	0x3dbe6c32	0.0929798
253	0x3d70325a	0.05864177
254	0x3d966b77	0.07344716
255	0xbd6b01c8	-0.057374746

weight f4 [1, 100]
0	0xbd8873e1	-0.06662727
1	0xbda71785	-0.08158783
2	0xbda00ba9	-0.07814724
3	0xbdb7148d	-0.089394666
4	0x3df093ca	0.117469385
5	0x3e1d434a	0.153577
6	0xbe0c4bf4	-0.13700849
7	0x3d22b564	0.03972377
8	0xbdd6d12e	-0.104891166
9	0x3dc61732	0.09672393
10	0x3d2f0a4f	0.04273444
11	0x3d0caa71	0.034342233
12	0xbddc1951	-0.10747016
13	0xbdfb3fc1	-0.122680195
14	0xbe0cf1b6	-0.1376408
15	0x3e1f3518	0.15547597
16	0xbdad2ab5	-0.08455411
17	0x3cd83714	0.02639345
18	0xbd802d0a	-0.062585905
19	0xbe1ccda3	-0.15312819
20	0xbb04f8d6	-0.002028992
21	0x3d2d1c26	0.042263173
22	0x3c9e7547	0.019343032
23	0xbd471aed	-0.048609663
24	0x3decce23	0.11562755
25	0xbd9c0949	-0.076189585
26	0xbd203716	-0.039115034
27	0x3db27593	0.08713832
28	0xbdc7ab27	-0.097494416
29	0x3d597757	0.053092327
30	0x3dbc63ed	0.09198747
31	0x3dcee91b	0.10103055
32	0xbd7ccb03	-0.061717045
33	0x3da3c613	0.07996764
34	0xbe2da7b0	-0.16958499
35	0x3ca56ba5	0.02019293
36	0xbdd62d29	-0.10457832
37	0x3e04cdf2	0.12969187
38	0xbcfd4c72	-0.030920241
39	0xbd92fc38	-0.07177013
40	0x3cba911e	0.022774275
41	0xbd6e2a64	-0.058145896
42	0x3db3b8c2	0.08775474
43	0xbddb984a	-0.10722406
44	0x3d154e8f	0.036451872
45	0xbd6572d4	-0.05601771
46	0xbd840543	-0.06446316
47	0xbd999e44	-0.0750089
48	0x3de7f04e	0.11325131
49	0xbdac0fec	-0.08401474
50	0x3ca7a23d	0.020463103
51	0xbd557160	-0.052110076
52	0x3d004dc2	0.031324156
53	0x3d8c2fda	0.068450645
54	0xbdd6f894	-0.10496631
55	0xbd5c6d65	-0.053815264
56	0x3ccfbdb0	0.025359005
57	0x3d7552d3	0.05989344
58	0x3e03c21e	0.12867019
59	0x3df65eb5	0.12029783
60	0x3df7e74b	0.121046625
61	0xbdecd153	-0.11563363
62	0xbdc40693	-0.095715664
63	0x3d94338b	0.072363935
64	0xbe1db3cd	-0.1540062
65	0xbdb344a7	-0.08753329
66	0x3d6489ec	0.055795595
67	0xbbfa033f	-0.0076297815
68	0x3df0f96a	0.11766322
69	0xbd7969f2	-0.060892053
70	0xbdd79037	-0.10525554
71	0xbadb08be	-0.0016710979
72	0xbdcb77c5	-0.099349536
73	0xbd9ffa9a	-0.0781147
74	0xbd5a7d41	-0.053342108
75	0xbd5d809c	-0.05407773
76	0x3d321626	0.043478154
77	0xbdc9cf5e	-0.09854005
78	0xbc086d64	-0.008326862
79	0xbe080922	-0.13284734
80	0x3d917879	0.071030565
81	0x3c6d5ebb	0.014487918
82	0x3d16fe8d	0.036863852
83	0x3ce149f9	0.027501093
84	0x3c6e95dc	0.014562096
85	0x3dbf2674	0.09333506
86	0xbde5b3f5	-0.11215965
87	0xbdef55d2	-0.11686291
88	0x3e0d9d35	0.13829501
89	0xbd769bec	-0.060207292
90	0x3df6ea73	0.120564364
91	0xbce67a8b	-0.028134605
92	0x3c600ac8	0.013674445
93	0x3e046440	0.12928867
94	0x3c8b0212	0.01696876
95	0x3d91afa5	0.0711358
96	0x3d59c2e2	0.05316437
97	0x3c8f635a	0.01750343
98	0xbda7a077	-0.08184903
99	0x3d72d136	0.05928155

hidden_cell f4 [1, 1, 100]
0	0x3db75e44	0.089535266
1	0x3ed0474b	0.40679392
2	0x3df1dd99	0.118098445
3	0x3e790e00	0.24321747
4	0xbe010790	-0.12600541
5	0xbb2e3bbe	-0.0026585902
6	0x3e279159	0.1636404
7	0xbd79264f	-0.06082755
8	0x3ec874d5	0.39151636
9	0xbf27d4a2	-0.65558827
10	0xbe542798	-0.20718229
11	0xbead9ed9	-0.33910254
12	0x3ebcf14e	0.3690285
13	0x3e7ed6db	0.24886648
14	0x3d8ce4c1	0.06879569
15	0x3e01a4ed	0.1266057
16	0x3e6d71da	0.23187962
17	0xbe63e60e	-0.22255728
18	0x3ea08ff5	0.3135983
19	0x3d053d51	0.03252918
20	0x3e76ac43	0.2408915
21	0x3c5acd98	0.013354681
22	0xba18843a	-0.0005818043
23	0x3e11f4a7	0.14253484
24	0xbd13ced6	-0.036085926
25	0x3d0ca303	0.034335148
26	0x3df4b9b2	0.11949481
27	0xbe813da8	-0.25242352
28	0x3eb1da79	0.34736994
29	0xbe6fe49d	-0.23427053
30	0xbc879fd7	-0.01655571
31	0x3ca4c72b	0.020114502
32	0xbd85709a	-0.06515618
33	0xbd685227	-0.05671897
34	0xbdb6612e	-0.08905254
35	0xbe8e5d4d	-0.27805558
36	0xbc9017e6	-0.01758952
37	0x3d611697	0.054953184
38	0x3cd52a19	0.02602105
39	0x3dccfb3c	0.10008857
40	0x3d872da9	0.06600506
41	0xbd510c5d	-0.05103718
42	0x3d018a4a	0.031626023
43	0x3da1fcdb	0.079095565
44	0x3c276452	0.010216789
45	0x3e938ea1	0.28819755
46	0x3cb2f0ba	0.021843303
47	0x3b4054f3	0.0029347509
48	0xbe696811	-0.22793604
49	0x3ee60a0b	0.44929537
50	0xbdb701ee	-0.08935915
51	0x3d53f9a8	0.051751763
52	0x3d9501f9	0.07275767
53	0xbe1923d5	-0.14955075
54	0x3e51c914	0.20486861
55	0xbcf25185	-0.029579887
56	0xbd137af1	-0.036005918
57	0xbe77e5b0	-0.24208713
58	0xbdb4bd10	-0.08825123
59	0xbe470df1	-0.19438912
60	0xbba08d28	-0.0048996396
61	0x3e74cb14	0.23905593
62	0xbda56deb	-0.08077606
63	0xbd9a85e9	-0.075450726
64	0xbe1bb8bc	-0.1520719
65	0x3e70dd15	0.23521836
66	0xbd1da1c1	-0.03848434
67	0x3cf9488e	0.030430105
68	0xbe45e168	-0.19324267
69	0x3e0db26e	0.13837597
70	0x3d11fd11	0.035641734
71	0xbde788d3	-0.11305394
72	0xbcabcfa0	-0.020973027
73	0x3ca37164	0.01995153
74	0x3d962dba	0.073329404
75	0xbdb98d9e	-0.090602145
76	0x3d5134c8	0.051075727
77	0x3d35a4e3	0.0443467
78	0x3dbb5326	0.09146719
79	0x3cb675ef	0.022273032
80	0xbd882bd9	-0.06648988
81	0x3c9a7eb7	0.01885925
82	0xbe208c26	-0.15678462
83	0xbe944df8	-0.28965735
84	0x3e483299	0.19550551
85	0xbe1695f9	-0.14705648
86	0x3ea407a1	0.3203707
87	0x3ded4534	0.11585465
88	0xbcf592e2	-0.029977266
89	0x3d345247	0.04402378
90	0xbdb71d17	-0.08941095
91	0xbdd971b8	-0.10617393
92	0xbdeb7348	-0.114965975
93	0xbb7fb6f6	-0.0039018965
94	0x3b5b6d0c	0.0033481745
95	0x3d87b3cf	0.06626093
96	0xbddb273b	-0.10700842
97	0xbe5060de	-0.20349452
98	0x3bffc248	0.0078051426
99	0xbe007285	-0.12543686

hidden_cell f4 [1, 1, 100]
0	0x3e0c4d3d	0.13701339
1	0x3f476c2b	0.77899426
2	0x3e4be97e	0.19913289
3	0x3ed558b0	0.41669226
4	0xbe89bbd4	-0.26901114
5	0xbb8e2946	-0.0043384163
6	0x3e8f3feb	0.27978453
7	0xbdf874a2	-0.12131621
8	0x3f43a247	0.7641949
9	0xbfa949d3	-1.3225654
10	0xbed0533e	-0.4068851
11	0xbf25bbe8	-0.6473985
12	0x3f2db493	0.6785366
13	0x3ee4498c	0.44587362
14	0x3e01a14e	0.12659189
15	0x3e599de5	0.21251638
16	0x3edf5ceb	0.43625578
17	0xbeddd26c	-0.43324602
18	0x3f1cb117	0.6120772
19	0x3d68d934	0.056847766
20	0x3edcddf9	0.43138102
21	0x3cccba0d	0.02499106
22	0xbaa92432	-0.0012904464
23	0x3e851915	0.259957
24	0xbd6ce475	-0.05783506
25	0x3d8e2162	0.06939961
26	0x3e5ecb7d	0.21757312
27	0xbee53cbb	-0.44772896
28	0x3f207b86	0.6268848
29	0xbf01a55a	-0.5064293
30	0xbcf14c0e	-0.029455211
31	0x3d0f9247	0.03505161
32	0xbdecd105	-0.11563305
33	0xbde18367	-0.11011391
34	0xbe238a20	-0.1597066
35	0xbf049156	-0.51784265
36	0xbcf3148e	-0.029672887
37	0x3dcca309	0.09992034
38	0x3d6adcd1	0.057339493
39	0x3e42c620	0.19020891
40	0x3e000984	0.1250363
41	0xbe028ec8	-0.12749779
42	0x3d7803fe	0.060550682
43	0x3e0e355d	0.13887544
44	0x3cb57b47	0.02215351
45	0x3f0fc0e7	0.5615372
46	0x3d2edd89	0.04269174
47	0x3bd6d3e1	0.0065560197
48	0xbedbc9b7	-0.42927334
49	0x3f5bf2af	0.8591718
50	0xbe3c3c52	-0.18382385
51	0x3de3699c	0.11104128
52	0x3e170fa9	0.14752068
53	0xbe841880	-0.25799942
54	0x3ed1405b	0.40869412
55	0xbd571e29	-0.052518997
56	0xbd998cc7	-0.07497554
57	0xbed56906	-0.4168169
58	0xbe10505b	-0.14093153
59	0xbebab6a5	-0.36467472
60	0xbc138035	-0.009002735
61	0x3ee46790	0.44610262
62	0xbe0a6329	-0.13514389
63	0xbe000f18	-0.12505758
64	0xbe7bc07f	-0.2458515
65	0x3ee1880f	0.44049117
66	0xbd9ca2ef	-0.076482646
67	0x3d644b26	0.05573573
68	0xbecc2da1	-0.39878562
69	0x3e9adea3	0.30247983
70	0x3d7a8b98	0.061168283
71	0xbe669273	-0.22516803
72	0xbd065aad	-0.03280132
73	0x3d0a86be	0.033819906
74	0x3e15515a	0.14581814
75	0xbe27ad4e	-0.16374704
76	0x3dc50f44	0.09622052
77	0x3d9a499a	0.0753357
78	0x3e470a2a	0.19437471
79	0x3d33dc5a	0.043911316
80	0xbe017361	-0.1264167
81	0x3d1f7b00	0.03893566
82	0xbe90918b	-0.2823604
83	0xbf03115b	-0.5119836
84	0x3ed2f38b	0.41201434
85	0xbe92e99b	-0.28693852
86	0x3f15e6f7	0.5855555
87	0x3e40e147	0.18835936
88	0xbd5a9fac	-0.05337493
89	0x3daaae77	0.08334058
90	0xbe222841	-0.15835668
91	0xbe3a10ca	-0.18170467
92	0xbe3c0e5c	-0.18364853
93	0xbbde35c4	-0.0067813117
94	0x3c05e3db	0.008172001
95	0x3e003ce1	0.12523223
96	0xbe5a029c	-0.21290058
97	0xbebc0efb	-0.3673018
98	0x3c7dc934	0.015489865
99	0xbe6af43d	-0.22944732
